DesignModel/save889.pth (torch, 486535 bytes, 10 tensors)

fc1.weight f4 [400, 120]
00000000: d43b 81bd 965b 643d 96f0 5e3d ec9b 293d
00000010: 2328 91bc 4b1d c4bd eaa4 91bd b68e 1e3c
00000020: 0a41 03bc a542 9f3d 4b85 8ebd 8078 6d3b
00000030: 47f5 1d3d d967 bdbd 9c0d 3ebd ace5 24bd
00000040: 3e3f a8bd 71b6 08bd a9e9 0bbd 167b c8bc
00000050: 879b 39bd bc4e f4bd 40c9 c43c aa7e 93bd
00000060: da3f b2bd 36b8 0b3c 977c 9d3c 4c8d 05bd
00000070: cffb 95bd e7e2 813d a673 2f3d f16d 9abd
00000080: c54b bfbd 0fd7 5d3c 7400 fbbc b232 a5bd
00000090: fbf8 5abd 5ab3 093c 4e04 e7bd 4188 8cbd
000000a0: c5df a7bd b792 cfbd b7ef a6bd 00bc 9bbd
000000b0: f4ce 95bd f594 80bd 92b8 79bd 9bfb 19bd
000000c0: 72a9 26bd 3a0c bbbd 094c c9bb 9fd8 2a3d
000000d0: d4ae 813c ee20 7cbd cf41 96bd 480a 6abd
000000e0: a0e8 573d f521 4b3d 230a 143c 8ac3 c9bd
000000f0: 8ad2 823c 0fc6 193d e93f 03bb 6a1c 8cbd
00000100: db30 0d3d c570 2bbc 8e70 82bd 20ed 803d
00000110: 7e2e c7bc e188 0f3d 9e04 e8bc 9f4f cbbd
00000120: 9d0f 3abd 0e4a 35bd e94f febd c988 b2bd
00000130: 5e5c d4bd 6bcb 94bd 5e2b 11bd 5b3d a6bd
00000140: 5e3d 8fbd 827d 533d 7225 8f3c 8e06 aaba
00000150: 66cf acbd 752c 7fbd 221b f2bc 6b12 c83c
00000160: 9dc4 bfbd 213c bbbd 332c 61bd 6301 043d
00000170: 1f74 95bc 9492 b5bd 2f2d 3a3d 9991 df3c
00000180: 97cc bebc f7d7 863d b6ea 67bd d658 f0bc
00000190: 4bfc debc c19c 893d 3ad7 35bc f4ee e4bd
000001a0: 8a54 a1bd 449c a5bd baa8 c23c fa82 5fbd
000001b0: 6089 41bd ff94 e5bb 2f4d 2ebd 81eb 6cbc
000001c0: 0a42 ecbd ffc8 99bd 4771 31bd 4c82 803d
000001d0: 665f 96bd e90e 14bd 2cae 91bd 3496 aa3c
000001e0: 8df9 cbbd 726f 4d3c 4aac 51bc bbac 82bc
000001f0: 6163 d6bd 20a0 c23b e694 2c3d cd8a febd
00000200: 4e92 d7bc 489e abbc ebb7 04be cf81 e3bb
00000210: 2ea8 293c 4c25 073d 63db 873d 480d 253c
00000220: c604 08be 82b2 b7bd b85d 8e3d e19f 38bd
00000230: 5727 84bd f84b 833d 5ae2 bcbd ea7e 3cbd
00000240: 9f36 85bb c644 d33c 5763 17be a98c 5dbd
00000250: 1b89 373d 843f 7bbd d64f 1d3d eea7 3ebd
00000260: 2232 a2bd e936 a73c 11d3 d0bd 7516 14bd
00000270: 16ef 54ba 7bda 9ebd 5612 79bd aebd 88bd
00000280: c753 06be a416 43bd a4b6 f63d 3ac2 093d
00000290: c07f b8bd a297 7fbb db12 20be ca0f cebc
000002a0: 0ab2 fb3b 22e0 763c 81cd 9fbd 0f6f a6bd
000002b0: 6f68 913d 24cd 51bc 8d53 803d 68f7 6bbd
000002c0: 2f49 a5bd 2949 96bd ea43 3abc 1f81 b5bd
000002d0: bf69 dabc 4cb1 1d3d 44cb c5bd 09c6 d93b
000002e0: c559 aebb 7ffd fbbd 5437 94bd edd7 d8bd
000002f0: c8f4 883d 944f 27bc cfae 05be 40c9 d83d
00000300: ad75 65bd b31f bcbd 6cc8 403d 4c09 df3b
00000310: ce05 fabd fd9a d13c 6084 3dbb a3c4 83bd
00000320: a8ea 9dbd f73a 9ebd 0d4d 22bd 640c a93a
00000330: 89e0 85bd 1bd3 6f3d a2cb 9a3b f1b5 0abd
00000340: 0ef3 b9bd e8b9 c9bd 747c c8bd 9cf6 5a3c
00000350: daf5 913c 1bd8 a3bd 0da9 fdbb c90b 053d
00000360: e3f0 40bd 8f17 d9bd 1603 8fbd b6c4 b1bd
00000370: 2b5a fcbc 7595 bdbd cf06 713d 44fc cfbc
00000380: 0d05 93bd 0426 993d e143 54bc 7eae e9bc
00000390: dbbd 74bd a8d5 923c 66e5 d0bd 216d b7bd
000003a0: 1e31 60bd 3658 303b e53e 59bd 798b cdbd
000003b0: b064 0cbd dbf4 953c 7774 31be 95d0 cdbc
000003c0: b85a 733c 99d1 f6bc c470 9abd 56ea b6ba
000003d0: b309 083e d027 91bd c93d 31bd 71e2 02be
000003e0: 253f 53bd 9f10 53bc 1d1c e7bd 9f80 b03d
000003f0: 9098 26bd cd48 273d f13c 1dbd facc d7bd
-0.063102394 0.055751406 0.05442866 0.041408464 -0.017719334 -0.095759 -0.07111533 0.00967758
-0.008011112 0.07776383 -0.06959017 0.0036235154 0.038563993 -0.09248323 -0.046399698 -0.040258095
-0.082151875 -0.033377115 -0.034158383 -0.024472754 -0.045314338 -0.1192908 0.024021745 -0.07201894
-0.08703585 0.008527806 0.019224448 -0.032605454 -0.07323419 0.06342106 0.0428349 -0.07540501
-0.09340624 0.0135400435 -0.030639865 -0.0806631 -0.053460103 0.008404577 -0.11280118 -0.06861926
-0.081969775 -0.101354055 -0.08151191 -0.076042175 -0.07314864 -0.06278411 -0.060967036 -0.037593465
-0.04068894 -0.091331914 -0.0061430973 0.041710492 0.015830435 -0.06155484 -0.07336771 -0.05713871
0.052712083 0.04959293 0.00903562 -0.09851749 0.015969533 0.0375424 -0.0020027107 -0.06841357
0.03447042 -0.010463898 -0.06369124 0.06295228 -0.024314161 0.035042647 -0.028322514 -0.09927296
-0.045425046 -0.044260077 -0.124175854 -0.08717496 -0.1036918 -0.072653614 -0.03544175 -0.081171714
-0.06994127 0.051633365 0.01747391 -0.0012971924 -0.084379956 -0.062298257 -0.029553954 0.024422845
-0.09363673 -0.09142328 -0.054973792 0.032227885 -0.018243847 -0.08865848 0.045453247 0.027291106
-0.023290915 0.06584161 -0.056620322 -0.029339235 -0.027219912 0.067193516 -0.011098677 -0.11178389
-0.07877453 -0.08086446 0.023762096 -0.05456827 -0.04725015 -0.007006287 -0.042554077 -0.014460445
-0.115360335 -0.0750904 -0.04332092 0.06274852 -0.073424146 -0.036147032 -0.07113299 0.020823576
-0.099597074 0.012538778 -0.012797425 -0.015951505 -0.10468174 0.0059394985 0.042134188 -0.12428818
-0.02631488 -0.020949498 -0.12960784 -0.0069429646 0.010355039 0.032994553 0.066336416 0.010073967
-0.13283071 -0.089695945 0.06951469 -0.045074347 -0.06452816 0.06410974 -0.09222861 -0.046019472
-0.004065349 0.02578963 -0.14783989 -0.054089222 0.04480849 -0.06133987 0.038406216 -0.04654687
-0.07919718 0.020411925 -0.10196508 -0.03615423 -0.0008122785 -0.077565156 -0.060808502 -0.066768035
-0.13117896 -0.047629014 0.12046555 0.033632495 -0.090087414 -0.0039000292 -0.15632193 -0.025154013
0.007681136 0.015068086 -0.07802869 -0.081266515 0.07099997 -0.012805257 0.06265936 -0.05760899
-0.08070599 -0.07338173 -0.011368731 -0.088625185 -0.026661752 0.03849916 -0.096579105 0.006645922
-0.00532076 -0.1230421 -0.072371155 -0.105880596 0.06687313 -0.010211844 -0.13054965 0.105852604
-0.056020427 -0.09185734 0.047066137 0.006806528 -0.122081384 0.0255866 -0.0028918013 -0.0643399
-0.07710773 -0.077260904 -0.039624263 0.001289737 -0.06536967 0.058550935 0.004723982 -0.03386492
-0.09079562 -0.09849912 -0.097893625 0.01336446 0.017817426 -0.08000203 -0.0077410997 0.032481942
-0.047104727 -0.106001966 -0.069830105 -0.08680098 -0.030804714 -0.09257022 0.058844384 -0.025388844
-0.07178698 0.07477954 -0.012955637 -0.028525587 -0.059751373 0.017924145 -0.10200004 -0.089563616
-0.05473434 0.0026908047 -0.053038497 -0.10036368 -0.03427571 0.018305233 -0.17329584 -0.025123874
0.014853172 -0.03012924 -0.075410396 -0.0013955336 0.1328495 -0.07087672 -0.043271814 -0.12781693
-0.05157389 -0.012882381 -0.11284659 0.086182825 -0.04067284 0.040840913 -0.038388196 -0.10537143

fc1.bias f4 [400]
00000000: 2161 43bd c6c6 d6bd 5ecf 3abe 4304 b8bc
00000010: d5db 29bd 3cd0 0cbf f0e3 c8bd 5e71 b83e
00000020: d40d 513d 486c cf3c b5a3 7abe edb7 04bf
00000030: 5008 633d 3dba 813e daf4 7e3d 5437 efbd
00000040: c63c f0bd 696d 8a3e c547 5ebe 11fc 923e
00000050: 89be 8abf 417a 6ebf 0af9 583e c18b 69be
00000060: 98d7 babd 8fa7 93bd 3f99 8dbe bc1c cdbd
00000070: eb31 35be 7082 29be 66f2 50bf 108a 26be
00000080: 0c23 50be 1269 90be 6523 923e 5439 ebbd
00000090: 5f7c 903e 344a 2fbf 997a a6bd 0493 02be
000000a0: a2a9 e4bd 0d2e 793e 1744 3fbe 7b4e 22bf
000000b0: ebb1 00bc 50f5 b7be 0b05 10bd 8605 7fbf
000000c0: 2c1c 81bc 5e9d 1ebf 7712 27be 61b6 4cbe
000000d0: 7d26 6abc 1fe4 a6bf dbe2 c53e a2ef 8ebd
000000e0: c7fa 9fbe 9450 6dbf 76a2 a0be 92e0 04be
000000f0: 6595 6ebe b045 6dbd cba3 6bbe 7309 8cbf
00000100: 9e6d 36bd 91cc 0bbd fd0a 4b3e c335 6b3d
00000110: 5fad 38bf 5c69 03bf 4180 a9bd af32 e4bd
00000120: c23a 62bd ae23 c3be b4e4 21be 6ef2 89bd
00000130: 7de6 1d3e 8f78 e33b e90d c5bd 7795 eabd
00000140: dca9 07bf bfa1 81bd 7de0 debe ffc3 40bd
00000150: d8a0 0cbf df48 f1bd eec9 ba3d 8fbe 3fbf
00000160: 4b7e 7dbe ac2c 17bf c331 00be 4157 24bf
00000170: e109 25bf dbe5 9a3e f177 97be 6966 a8bd
00000180: 0f39 6fbf 8bad 29bf 0dbd 80bd c6c6 f7bd
00000190: b524 edbe 5262 5bbd a3e2 6ebd f979 a0bb
000001a0: 49d6 86bd d2f7 f8be b88c 89be 4588 6cbe
000001b0: be51 5ebe eb48 61bf 5b39 363c 3929 7ebd
000001c0: 5d09 99be 0cc1 6abc 4857 36be 1053 9d3d
000001d0: 3042 39bf 6bbd 423e c00c 1cbe 7da3 b7be
000001e0: b058 6dbf 278d 64bf c484 e5bd b979 a73e
000001f0: 6c1c 08be ce85 5dbc a49f dfbd 068a 07bc
00000200: 58e0 54bf 8d6d 14be c570 98bd ba9e 27be
00000210: 8428 babd 6b80 babd d5ef adbd 3d80 01bd
00000220: ccf0 a9bf 1489 2cbd 42be 04be e1cd 33be
00000230: caa4 09bf 1a47 e1bd fdb2 72bc 975f fcbd
00000240: 4041 24be a714 91be 6919 0dbe 54ce 4c3d
00000250: 6009 09be 41b5 97be 5228 063d 465a 80bd
00000260: 3814 c7bc 8185 4dbe 19ee 5ebf c4f1 d3be
00000270: b1d8 f8bd 46ca 903a 165d 98bd b21d 18bd
00000280: b877 b5be 9414 f8be 1716 893d 4b61 91be
00000290: 4fe7 8ebf 3b2e 55be 4232 94be e12e 603e
000002a0: 3741 30be aecb 3bbf a2ac 04be 93bb c1bd
000002b0: 7804 d0bd 74a5 6dbf 5b51 0bbe fe86 20be
000002c0: 25b2 bcbd d9c5 d9bd a02a e4bd 9f96 9a3e
000002d0: e5dd c7be 8d3e 0bbd cdc4 1ebc ab5a 82bf
000002e0: 944e dabd 5b49 25be f145 2dbe db6d 77bf
000002f0: 0d21 243f dba1 2b3f 3152 39be 713c 92bf
00000300: 5f1c fcbd dcda 743c 6a2a 83be 5217 9bbd
00000310: 1531 22be d446 543e 6d11 93be 3988 88bf
00000320: 0669 d9bc 1322 3fbd 8e48 9a3a ceb3 39be
00000330: 3588 a9be 5c66 17be 5f15 9d3c 267d 57be
00000340: 3a6f b83e f8ca 8dbf 65e1 11bf c1e7 f5be
00000350: 2a96 21bf 337d 7ebd e6e6 69bc 605c f6bc
00000360: d0ab 93bd 5700 42bd 2207 61be 2087 c9bd
00000370: 3cb5 e53e 544a 3ebd 0ed2 a4bd a78b 703e
00000380: d0b1 2ebe de75 7f3e 5da5 20be 3902 3ebd
00000390: 42ba f9bd 3c16 033f aa5e 50bf e245 99bf
000003a0: aac8 87be 3219 cf3b 20d5 88bc 29f7 c9bc
000003b0: 9b8d 30be 1174 41bd 7cfa 60bc f1fc 2d3e
000003c0: c57a b0be 895a b4be 0ead b8bd 82b0 94be
000003d0: 6162 e83d 6fa9 57bf 9dc4 4d3e 43f0 43be
000003e0: 81c1 35bf 8b74 c7bd 6310 10be 01ca f53d
000003f0: 8434 8dbf e9a8 11bf da4a e7be a388 6fbd
-0.04770005 -0.10487132 -0.18243167 -0.02246297 -0.041469414 -0.5500524 -0.09809101 0.36023992
0.05103858 0.025320187 -0.24476512 -0.5184315 0.05542785 0.253374 0.062245227 -0.11680475
-0.117303416 0.27036598 -0.21707065 0.28707936 -1.0839397 -0.93155295 0.21188751 -0.22807218
-0.091231525 -0.07209694 -0.2765598 -0.10015246 -0.17694823 -0.16553664 -0.8161987 -0.16263604
-0.2032587 -0.28205162 0.2854263 -0.11485544 0.28219888 -0.684726 -0.081288524 -0.12751395
-0.111651674 0.24333973 -0.18678318 -0.63401 -0.007854919 -0.35929346 -0.03516106 -0.99617803
-0.015760504 -0.61958873 -0.16315638 -0.19991447 -0.014291403 -1.3038367 0.3864964 -0.069793
-0.31246015 -0.9270108 -0.31373948 -0.12976292 -0.23299177 -0.057927787 -0.23011701 -1.0940384
-0.044538133 -0.034130637 0.1982841 0.057424318 -0.72139543 -0.5133264 -0.082764156 -0.1114248
-0.055231817 -0.3811316 -0.158099 -0.06735693 0.15419956 0.006941862 -0.09621794 -0.114542894
-0.5299356 -0.06329679 -0.43530646 -0.047061916 -0.5493293 -0.11781477 0.09120546 -0.74900144
-0.24755208 -0.5905254 -0.12518983 -0.6419564 -0.644682 0.3025349 -0.29583696 -0.08222658
-0.9344644 -0.6628043 -0.062860586 -0.1209846 -0.46317068 -0.053560562 -0.058321606 -0.004897353
-0.065838404 -0.48626572 -0.26865172 -0.23098858 -0.2171087 -0.8800189 0.011122073 -0.06205103
-0.29889956 -0.0143282525 -0.17806733 0.076818585 -0.7236662 0.1901757 -0.15239239 -0.3586692
-0.9271345 -0.8927788 -0.11206964 0.32710055 -0.13292092 -0.013520671 -0.10919121 -0.008272653
-0.8315482 -0.14494915 -0.07443384 -0.16369143 -0.09089759 -0.09106525 -0.0849301 -0.03161644
-1.327661 -0.042122915 -0.12963203 -0.17559005 -0.53767073 -0.1099989 -0.014813182 -0.1232292
-0.16040516 -0.2833607 -0.13779224 0.050001457 -0.13382483 -0.29630473 0.032753296 -0.06267218
-0.024301633 -0.20070459 -0.8708206 -0.4139539 -0.121507056 0.001104661 -0.0743963 -0.037137695
-0.354429 -0.484532 0.066936664 -0.2839454 -1.116434 -0.20818417 -0.28944594 0.21892883
-0.17212377 -0.73357666 -0.12956479 -0.09459605 -0.10157102 -0.92830586 -0.13605253 -0.15676495
-0.09213666 -0.106334396 -0.111409426 0.3019304 -0.3903648 -0.0339952 -0.009690476 -1.018392
-0.10659519 -0.16141264 -0.16921212 -0.96652 0.6411293 0.67043847 -0.1809776 -1.1424695
-0.12310099 0.014944758 -0.25618297 -0.07572807 -0.15839036 0.20730144 -0.28724232 -1.0666572
-0.026539337 -0.046663355 0.001177089 -0.18134996 -0.3311173 -0.14785141 0.01917523 -0.21043834
0.3602236 -1.1077566 -0.5698455 -0.48028377 -0.6311976 -0.062131118 -0.014276242 -0.030073345
-0.07210505 -0.047363605 -0.21975377 -0.09840226 0.44864833 -0.046457604 -0.08047877 0.23490773
-0.17060018 0.24947307 -0.15688081 -0.04638884 -0.12193729 0.512058 -0.81394446 -1.1974452
-0.26520282 0.006320142 -0.016703188 -0.024653988 -0.17241518 -0.04722983 -0.013731595 0.1699102
-0.34468666 -0.35225323 -0.090173826 -0.29040915 0.11346889 -0.8424291 0.20094533 -0.19134621
-0.7099839 -0.09739026 -0.14068751 0.1200142 -1.1031651 -0.5689836 -0.45174295 -0.058479916

fc2.weight f4 [20, 400]
00000000: 6ddf 493d 04a8 333d 22b9 9238 51cf 823c
00000010: 6060 11bd 5a54 5ebe 2469 4d3d 441e 3d3e
00000020: 235f e13b c0dc 6bbd c36c 1c39 354b dd3d
00000030: ff14 db3c c67a b6bc c795 09bc af76 133e
00000040: 240d b83b d643 73bb 5bc2 69bc 647d 5abd
00000050: 5c3d 0b3d c294 c33e 13e4 d9bb ad25 c93a
00000060: f4db 8ebc 5aef 5abc f1cd c03d 0746 d53c
00000070: b4c0 16bd 2f11 f63b d921 d33d 2ed5 b3bd
00000080: 3729 013e d1dc da3d 957e 573d 7444 42bb
00000090: 6430 613a 9c1c b3be 9016 ba3c f479 863d
000000a0: 790d 1dbd eae6 22bd 3264 173e 9877 6aba
000000b0: 5ce6 c2bc 3b13 0e3e fc2c 2b3c a1a8 52be
000000c0: ddb3 913d a076 0abe 25ec 9b3e bed9 b93c
000000d0: 62b8 d23d 9995 543d b9c1 883d e4f8 b33d
000000e0: 5e25 be3c 44f5 65bd 74c9 29bc 6517 5abd
000000f0: 633d 413e 6891 c4bc cf51 72bd 9451 54be
00000100: 2a4b 993d 747c de3c 4d17 f1bc e59e 98bd
00000110: 0fad 0c3e d987 83bd d525 c93c 2ce0 dabb
00000120: 50e8 0cbd e560 3c3c 4f41 2c3d b964 653b
00000130: 722d 3fbd 72b5 893b 447f 713d 5c4b 5c3e
00000140: e02a afbd 4ffb 7dbe 11e0 44bb b4f3 d7bc
00000150: 210e e2bc f806 88bc 9504 31be 82e9 7abb
00000160: c07a 0f3e 2f8e 963e a2fc 1e3d de5e 963e
00000170: 7e44 d33b 7aaa 50bc 50d8 1f3e 1e38 f6bc
00000180: dca7 ad3d f068 ef3e fe88 41bc a5ef c6bb
00000190: 939b 3dbd 0f4c 013d 7691 1abd 2195 72bb
000001a0: 4271 efbd c160 fb3d 0566 e73c fa70 9bbe
000001b0: 1309 e53d 8508 ca3d 6145 81bc 3a08 813d
000001c0: 4f61 643d f91e e9bc d4fd 323a 2240 333d
000001d0: 1bd6 383d aff7 69bd b9f9 113e 5aa5 72bc
000001e0: 7726 febc a3ff 7cbd 2899 163c 5f94 b7bc
000001f0: 17f4 293d 866d 543b 21a8 183d 8fbf d9bc
00000200: 9ebb 623e 1123 3fbc e822 243d 7054 81bc
00000210: 8df2 e1bc 4ad0 333c 12a7 bf3d e6e4 a4bc
00000220: 3f6e 5d3b 3385 b2bc d7d4 c83c 58ac 33bd
00000230: 6d62 d23e 49f4 8fbd 2d59 fdbb 4f96 61bc
00000240: 6ce1 bfbd a288 b43e 5a4f bc3d 6e3c b6bc
00000250: cdb9 dd3c e05e d93d d8e2 ce3c d57d bc3c
00000260: 198c 813d c18f cfbd 9a25 b43d c0bd 8a3e
00000270: dad5 c63e 0395 043d a520 f73b a7c6 fa3c
00000280: 3abc c1bd c83e 963e 1669 adbd c316 8f3d
00000290: 2ef2 2b3d 9ac1 14be 3852 7c3e f524 48bb
000002a0: 82bf 233c eebb 103e 3627 81bc 996b 1bbb
000002b0: 240f 85bd 9203 c13d d46c 1f3d b6bf 9fbd
000002c0: f053 983d 147a d53c 8667 afbc 1582 543c
000002d0: 8b75 3cbe 843e 09bd 5362 7a3d 3d14 b0bd
000002e0: 3a42 3f3c c4de 353d c424 30bd 1678 0c3d
000002f0: a45e 19bd a7ad 61bd 59cd f63c 7e30 533d
00000300: fb8a 4e3b dda2 96bc b1d8 e5be 3a61 aebd
00000310: a06a 533d f73e 033e a19c 823e f810 153e
00000320: 1311 c4bb bfaf 893d 19ff 84bc 6c95 9e3c
00000330: a1d0 fa3e 39ff 81bd 4406 2dbd 81fb d0bd
00000340: d71f a0bb d780 3cbe 00d1 443f c546 1bbe
00000350: 23ac 0fbe a0b2 cbbc 1ecf 253d 6d87 553b
00000360: abe0 8c3d ebc7 60bb 4bb9 04be ec44 1fbd
00000370: 8b7f 433d a6f3 c13c ec2d 61bd 325d f23c
00000380: 9d09 893d e026 c5bd 920a 8abd adb4 89bc
00000390: 4e84 5dbc 2446 9a3c 97dd 6d3e fa6a 76be
000003a0: c340 003c ed60 393d 42ae 40bd 90ca 533c
000003b0: 34de 0ebd 8c7a 703d 1f9f 6c3e f6b8 f63e
000003c0: b8cb 4a3e 4a8f d93d 6aeb 243d d245 5ebc
000003d0: 24e4 853c e281 27bd d114 583d e885 1bbe
000003e0: b514 7d3e 86d6 fcbe 15ba 4f3d c012 5fbe
000003f0: 684b 1abd cb0b 133f 3d6e acbd e489 ad3c
0.04928534 0.043861404 6.996306e-05 0.015967997 -0.0354923 -0.21711865 0.050149098 0.18468577
0.0068777963 -0.05758357 0.00014917836 0.1080536 0.02674341 -0.02227534 -0.008397526 0.14400743
0.005616801 -0.003711929 -0.014267529 -0.053342238 0.033994064 0.3819943 -0.006649503 0.0015346311
-0.017438866 -0.01336273 0.0941428 0.026034368 -0.03680487 0.0075093727 0.1030919 -0.08780895
0.12613378 0.10686649 0.052610952 -0.0029642852 0.00085902796 -0.34982765 0.022715837 0.065662295
-0.038342927 -0.039770998 0.14784315 -0.00089442125 -0.023791485 0.13874523 0.010447737 -0.2057214
0.07114384 -0.13521814 0.304536 0.022686835 0.102890745 0.05190048 0.06677575 0.087877065
0.023211177 -0.056142107 -0.010362972 -0.053244967 0.18871073 -0.023995116 -0.05916005 -0.20734245
0.074850395 0.027158953 -0.029430056 -0.07452182 0.13737892 -0.06422395 0.024554173 -0.0066795554
-0.034401238 0.011497711 0.04205447 0.0035002662 -0.0466742 0.004202538 0.05895926 0.21513122
-0.085531 -0.24802898 -0.003004078 -0.026361324 -0.027594628 -0.016604885 -0.17286904 -0.0038286154
0.14011669 0.29405352 0.03881515 0.29369253 0.006447374 -0.012735957 0.1560986 -0.030056056
0.08479282 0.46759748 -0.011812447 -0.0060710483 -0.046290945 0.031566676 -0.03773638 -0.0037015157
-0.11691524 0.12274314 0.028246889 -0.30359632 0.111833714 0.09864906 -0.015780153 0.06300397
0.055756863 -0.028457152 0.00068279845 0.043762334 0.045126062 -0.057120975 0.14255418 -0.014809931
-0.0310242 -0.06176723 0.009191789 -0.022409616 0.041492548 0.0032413914 0.037269715 -0.0265806
0.22141883 -0.011666075 0.04007235 -0.015787333 -0.027581478 0.010974953 0.09358038 -0.020128679
0.0033787636 -0.02179203 0.024515552 -0.04386553 0.41090718 -0.070290156 -0.007731578 -0.0137687465
-0.09369168 0.35260493 0.091948226 -0.022245612 0.027066136 0.10613799 0.025254652 0.02300922
0.0632555 -0.10134841 0.087962344 0.27097893 0.3883503 0.03236867 0.0075417333 0.030612303
-0.094597295 0.29344773 -0.08467309 0.06986763 0.041979007 -0.14526978 0.24640739 -0.0030539606
0.0099943895 0.1413419 -0.015765768 -0.0023715256 -0.064970285 0.09424509 0.038922146 -0.07800238
0.07437885 0.026059188 -0.021411669 0.012970467 -0.18404214 -0.033506885 0.061128926 -0.0859761
0.0116735045 0.0444019 -0.043003812 0.03429421 -0.037443772 -0.05509725 0.030127214 0.051559918
0.0031515944 -0.018388206 -0.44891885 -0.08514638 0.051615357 0.12816988 0.25510123 0.14557254
-0.0059834807 0.06722974 -0.016234921 0.01935836 0.48987296 -0.06347508 -0.042242303 -0.102042206
-0.004886608 -0.18408523 0.7688141 -0.15163715 -0.14030509 -0.024865448 0.040480725 0.003258194
0.068787895 -0.0034298848 -0.12961309 -0.03888409 0.047729056 0.023675751 -0.054975435 0.029585455
0.06691287 -0.096265554 -0.067402974 -0.016809786 -0.013520313 0.018832274 0.23229061 -0.24064246
0.00782794 0.04525845 -0.047041185 0.012926713 -0.03487988 0.05871062 0.23107575 0.4818799
0.19804275 0.10623033 0.04026357 -0.013566451 0.016344137 -0.04089535 0.052754227 -0.151878
0.2471493 -0.49382418 0.05071457 -0.21784496 -0.03766957 0.5743987 -0.08419464 0.021183915

fc2.bias f4 [20]
00000000: 6ea5 1a3e 44fd 93be 0622 02bf 4e03 803e
00000010: 9dc5 e43d 4ef3 3fbc a4b7 e63d a330 2cbd
00000020: 2477 02bd 16dc 203e d830 e3bd 45e9 163d
00000030: eb3e 6cbe fcf5 78be 0162 173e 5065 003e
00000040: 2e2d 4e3e f1eb f6bd aa8d c9bd f31c e3bc
0.15102169 -0.28904164 -0.50833166 0.2500252 0.11170504 -0.011715723 0.112654954 -0.04203857
-0.031851903 0.15708956 -0.110933006 0.036843557 -0.23070876 -0.24312586 0.1478348 0.12538648
0.20134422 -0.12056721 -0.098414734 -0.027723765

fc3.weight f4 [20, 400]
00000000: 6ccf 033d 5d48 24bc f0d8 763c 58f5 0b3b
00000010: ca8f 68bc 898f 3e3e 32d0 8d3d 6449 483d
00000020: 5722 98bc d90b 91bc c480 e53d e763 993e
00000030: 1854 dbbc 4fe4 babe f268 d03d 8f1f c53d
00000040: b93b 883c 8a8c 273d 6aa0 553e 4fb9 4bbc
00000050: 5701 143c 8750 3d3f b9da 9b3d 8c86 a53d
00000060: f2cb 3ebd 0573 233c 04e6 3e3e d319 e13d
00000070: 4326 333c f7f0 4ebd dde1 de3e 3264 e4bc
00000080: bb1f 673e 6bde f43d 5243 c33c 3591 c0bc
00000090: c225 103b 923e 883d 6e58 ec3c 44b4 cb3c
000000a0: 4d5f d53c 6c78 82bd 43b0 003e 709f 313f
000000b0: cbcb 00bd 81f6 f63e 23dd 823c aa50 c63e
000000c0: f262 423d d227 063f 221a 953f 2a67 e43d
000000d0: e1eb 063d b250 0a3e 10f1 4cbc b62b e3bb
000000e0: 6c4d 8c3e b62e 003f f782 173e fd8c c7ba
000000f0: 2977 983e d9c1 3e3d 721d 423e 7616 2a3e
00000100: eb08 cbbd f37b debb 37c0 adbc 157f 013e
00000110: 977d 723e fb97 483e e85b 82bd 6eab 323d
00000120: 3ad8 a7bb 4abe 463e 9138 d0bd bee8 81bc
00000130: b522 6f3b 743c debc dfc7 313d 8845 c63f
00000140: 778a b33d 6a10 ea3d 84d0 103e 4bf4 20bc
00000150: a84c cc3d 649f 603d 0936 463d 0c97 9e3e
00000160: e44a ab3e 4b5e 403e 86ca e839 b000 0f3e
00000170: eb46 2a3c 4366 d73c 7d8c a13d 9ccb 993c
00000180: 36c8 82bc ab21 a03d 7b5a 123d 9f54 903d
00000190: 6100 da3c d0cc 7cbc 5472 033b fb76 f4bc
000001a0: 3a05 283d 0dad 903c 79a4 8a3e c9ef 3d3e
000001b0: ff37 ce3c aa61 a53d 50f3 f3bc 53a2 9d3d
000001c0: bb7d 243c fe7e 2abb 7f8f 303d c42c 8bbc
000001d0: 51d9 c93e 3b10 4b3d 84d6 993e 4f65 2f3e
000001e0: e07d ecbb 14b4 303e 858d 223c 78f6 e7bb
000001f0: 3391 3fbd d9ee 5bbd 1d14 9a3c 21e3 a2bc
00000200: c248 103e f2ab 1fbc 679e c03b 2ed5 723d
00000210: 1769 bd3b e314 35bd 9858 753c e108 923d
00000220: 9df3 e43d 0f79 d0ba 1632 62bd 4031 9b3d
00000230: 6922 1d3e 920a d8bb 552f 03bd ab04 07bd
00000240: 2220 173e 3d16 033f f350 4a3e 6dc3 103d
00000250: f8d5 3c3c d856 dc3e 59d9 f33c 8441 073c
00000260: 8b4f 03bd e221 b33d de37 923d c9b9 4d3e
00000270: 52c6 e83d 4c19 de3c d9aa 06be bb16 e53c
00000280: 6f43 873e 38a0 be3e 8293 a5bd c3f1 583f
00000290: f7e2 1d3f 338f e23d 65a1 3a3e 3214 57be
000002a0: d7ba 3abd 8e66 253e 7c95 8f3d 628b 353d
000002b0: 73ca 693c b56d cd3e a0f5 14bd 99d5 c1bb
000002c0: 7617 1bbd 76c6 143e 5d6c 1b3d 5bf3 013d
000002d0: 0662 ab3d 22de 663d 444e 10bd dc1a bd3e
000002e0: 1d53 903d bcc3 113e 41bf c1b9 ae9b 443d
000002f0: 7061 a93d 0b0b 473d 2dbe 643d 7e6c 8f3e
00000300: ca81 86bc 081a bc3c 44b9 c53f 50bf db3d
00000310: 121a 323e 163e 2a3d f3a0 3c3e 37fb 583d
00000320: 0c6c b0bd 5646 f43d a993 3cbd 3a96 843e
00000330: 5bf5 0c3f 96ce 92bc 9302 e3bc 22bb 913d
00000340: 156a 803c 438d b53e 0e82 2c3f 4aed 0f3e
00000350: 67de 923c 4e9a 8bbb 7b50 d7bc a421 433a
00000360: 5952 2cbd d4ab a3bc 8ba3 cd3d 645a 21bc
00000370: 4650 d93b 3f49 09bd 5ad7 60bd bcbd 9bbc
00000380: 31b5 e8bc fd89 66bc 2de0 66bd ae19 b83c
00000390: 1990 063c 098b ba3c 89bd dc3e bb19 263f
000003a0: cb57 423e 8da0 58bc 7956 b2bb 00db 963a
000003b0: 73c8 d7bc 9004 833c 57be 3b3d 5e02 083e
000003c0: b281 663e faff 4c3d e6be b73d d284 8e3d
000003d0: 9db6 cfbd 69f5 2c3e 3e2d 823c 7957 b63d
000003e0: 6c6d f53e 41d8 c53e b090 e73d 4eac 8f3d
000003f0: 1c66 2b3f 8636 833f 6554 eb3e 7af7 90bd
0.032180235 -0.010027018 0.01506637 0.0021355953 -0.014194438 0.18609442 0.06924476 0.048898116
-0.018571062 -0.017705845 0.11206201 0.29959032 -0.026773497 -0.3650231 0.10176267 0.0962516
0.01663004 0.040905513 0.20861974 -0.012434318 0.009033523 0.73951 0.076100774 0.080823034
-0.046581216 0.009976153 0.18642431 0.10991254 0.010934415 -0.05052277 0.43531695 -0.027879808
0.22570698 0.11956485 0.023835812 -0.02350674 0.0021995162 0.06652559 0.02885076 0.02486623
0.02604642 -0.06370625 0.12567239 0.6938391 -0.031444352 0.48234943 0.015974587 0.38733417
0.047457643 0.5240451 1.16486 0.111524895 0.032939795 0.13507345 -0.012508646 -0.006932701
0.27402818 0.50071275 0.14796053 -0.0015224513 0.29778412 0.046571586 0.18956545 0.1661013
-0.0991381 -0.0067896782 -0.02120982 0.12646134 0.23680721 0.19589226 -0.06365186 0.04362052
-0.0051222118 0.19408527 -0.10167039 -0.01585805 0.0036489193 -0.027128436 0.043403503 1.5489969
0.087666444 0.11428912 0.14142042 -0.009823869 0.099755585 0.054839507 0.048391376 0.30974615
0.33455575 0.1878597 0.0004440138 0.13965106 0.010392885 0.02629388 0.07888124 0.018773846
-0.015964609 0.07818922 0.03573082 0.0704739 0.026611509 -0.0154296905 0.0020057159 -0.02984189
0.04102061 0.017660642 0.27078608 0.18548502 0.025173185 0.080752686 -0.029779106 0.076969765
0.010039742 -0.0026015635 0.0431056 -0.01698912 0.39423612 0.049576025 0.30046475 0.1712849
-0.007217154 0.17256194 0.009921436 -0.007078942 -0.046769332 -0.05369458 0.018808419 -0.019883694
0.14090255 -0.009745585 0.005878258 0.059285335 0.00578035 -0.044209372 0.014974736 0.071306
0.11179278 -0.0015905219 -0.055223547 0.07577753 0.15345158 -0.006593057 -0.03202756 -0.032963436
0.14758351 0.5120581 0.19757442 0.035342623 0.0115256235 0.43035007 0.029766725 0.008255366
-0.03205828 0.08746697 0.07139562 0.20090403 0.113659516 0.027111672 -0.1315111 0.02796494
0.26418635 0.37231612 -0.080847755 0.847439 0.61674446 0.11062469 0.1822563 -0.21003798
-0.04558834 0.16152403 0.07010934 0.04432238 0.014269459 0.40122762 -0.03636706 -0.0059153554
-0.03786417 0.14528832 0.03794514 0.031726222 0.08368306 0.056364186 -0.03523089 0.36934555
0.070471026 0.14234823 -0.00036954324 0.04800003 0.08270538 0.048594516 0.05584543 0.2801246
-0.01641931 0.022961631 1.5447164 0.10729849 0.17392758 0.041563116 0.18420772 0.052973952
-0.08614358 0.11927478 -0.046039257 0.25895864 0.5506188 -0.017920773 -0.027711188 0.07115771
0.015675584 0.35459337 0.6738595 0.14055362 0.017928315 -0.004260338 -0.026283493 0.00074436725
-0.04207072 -0.019979395 0.10040959 -0.009848211 0.006631884 -0.03351712 -0.054892875 -0.01901137
-0.028406711 -0.014070985 -0.056366134 0.022473183 0.0082130665 0.022771375 0.43113354 0.6488301
0.18978803 -0.013221872 -0.0054424373 0.0011509359 -0.026340699 0.015993387 0.04583582 0.13282153
0.22510412 0.050048806 0.08971958 0.06958927 -0.101422526 0.16890492 0.015890714 0.08903403
0.47935045 0.3864155 0.11306894 0.070152864 0.6695268 1.0251014 0.45962825 -0.070784524

fc3.bias f4 [20]
00000000: fe31 30c0 1964 20c0 20b3 1cc0 b187 11c0
00000010: 4062 27c0 11eb 1ac0 93ff 22c0 1277 1dc0
00000020: b434 18c0 8a64 eebf d775 1ac0 ec12 13c0
00000030: a208 1cc0 a9ff 16c0 fa11 16c0 a925 18c0
00000040: 5eee 1fc0 cd4e 1dc0 da8e 23c0 0295 10c0
-2.7530513 -2.5061095 -2.448433 -2.273907 -2.6153717 -2.4205973 -2.546849 -2.4603925
-2.3782167 -1.8624432 -2.4134424 -2.29803 -2.438027 -2.3593543 -2.3448472 -2.3772986
-2.4989238 -2.4579346 -2.555594 -2.2590947

fc4.weight f4 [400, 20]
00000000: 0470 e03d cf62 0e3f 4087 2ebe ca4e 813b
00000010: a75c 6c3e be63 0cbe 4186 c73e acdb 2c3f
00000020: 1726 a03e 7033 e83c 4797 44be 388c bc3d
00000030: be16 d3bc f3e6 09be f26f e6be 2aef 233f
00000040: 70b0 813b a470 1bbe 3315 e23d 1a8b 363d
00000050: 6912 333d 5cff 813e c57c a13d 814e 41bf
00000060: 1fe8 a0be 2a67 19be b3a1 fa3e 1ec2 2d3e
00000070: f8bf 893e 2b3b 7bbe 1d94 e13d 6ea5 863e
00000080: 64a7 a4bc f247 f13e 3014 203f 2c3e 6dbe
00000090: a9cc 933c 9129 9ebe d065 123e faf9 99bf
000000a0: 8877 c5be adba 87be 6828 ecbe c74f 02be
000000b0: 64bc 0fbe 3222 fb3e 9ccc 1e3d 0d70 a53d
000000c0: f306 853e d9d5 903e d172 b9bd a234 203f
000000d0: 47d4 bb3e b577 1dbf 27e6 8d3d 6c44 73be
000000e0: 9b2f c83d 82a8 a3be 7f26 073f 4c00 cc3e
000000f0: e88f 45be 2e43 0e3f 72d4 f93e d918 36be
00000100: 720a 6b3e a926 fe3d 5c9f 8ebc bffe 2abe
00000110: 95fd 09bd 961f 0f3f 31f9 9fbc 761a 7ebe
00000120: ff1f 00bd a771 bb3d fea7 993e ee41 9cbe
00000130: d95c 173f 4943 2ebe 8db7 12be 9722 82bd
00000140: 6ed8 a8be a9c5 44bf 0011 ecbd 9dca b3be
00000150: 56e2 21bd 900d e6be 7194 e93d e3e2 4bbf
00000160: 74e9 a13e 8bbb c13e afac f5bd 0b3b 82bc
00000170: 81cc 84bd f446 9dbd 03ef fa3d a310 90be
00000180: 9098 c93e c8d0 bc3d 4ce7 8fbe 5eee 62be
00000190: bfb3 7e3f 9783 42bc 19d5 993d 755d 23bf
000001a0: 4d58 a6be 6a5f e0bd a474 bfbc 59a6 88bd
000001b0: fb2b b93e 17ea 313f 2eb3 3e3b 4fe1 c03e
000001c0: b2ff 8dbd 6100 2abf 105a b73d 641d 96bd
000001d0: 1d42 cb3d e9f2 7d3e 89da e8bd 7d9a 253d
000001e0: e979 05bf d77b e3bd b684 1dbe 2cbd a3be
000001f0: 4241 783d 690c 2bbe 6cb7 6e3e 0a67 e13e
00000200: 9a4f a43d 1b50 b53e af05 4e3d deec b9bd
00000210: 9720 ad3e f768 8a3d b9f0 eabd 90a4 723e
00000220: 52ce 1a3e ffcc 203e 1c24 3bbf ddc0 6e3e
00000230: c027 3e3f 22da 77bd 47eb 06be e06e 9e3e
00000240: 4ca8 883e 7d10 17be 93c4 5bbe 0891 9e3e
00000250: a219 03bf 6392 22bc 07c7 2abe 85b1 293f
00000260: 99e2 013e 7042 523e fa74 8b3e 2ef3 d73e
00000270: 59f1 483d 34f5 3f3e b659 2c3e 51c8 373e
00000280: 0c7d a63e 64f0 ed3d e452 c9bf 14c7 3fbe
00000290: c86f 38bf d4e9 863d 9be2 8a3e 32f1 153f
000002a0: b35d 6c3e 2bd6 29be 908b b8be 788f 063e
000002b0: f7b7 d73d 36a5 983d 394a 8d3e fdf7 f03e
000002c0: 1f3d a83d ba27 3d3e 96db ea3f 93e9 3e3f
000002d0: 5f1e bfbd c975 d93e 460d e3bd f9e5 0d3d
000002e0: 61a6 023d 0bdc bbbd dcc9 01be d46b 313f
000002f0: 9685 a5be a2c0 793e 9786 afbe 00a6 543f
00000300: a8d0 37be 0b3a 39be 8830 a7bd fae6 d13d
00000310: 19f4 41be 5955 433d 9517 273f 93ad 17bd
00000320: 18c1 893e c867 a0b8 8767 a13d 5fb4 233d
00000330: 7827 37bd 62f9 803e 2eec 2cbe 0ce0 263d
00000340: 5788 053f 6b4a 14be 3c80 cb3d e3c9 963d
00000350: db86 383e 5a98 623d 170c 0d3e 91da 743e
00000360: eed4 57bb 148e 153f 01eb 04bd 4a71 bfbc
00000370: c08b ab3f 0673 babd 46c6 de3c 0b5f e03e
00000380: c68f c43d fb52 983e 29bf 5ebe 4163 8d3e
00000390: a84b 7b3e 2c72 b2be e991 cf3e 6a73 23bd
000003a0: 86ef f93c 23c0 313e 67a8 1dbf 3b16 e93e
000003b0: 3b5e 25bb a99b 9f3e f1d6 2fbe 8ca1 933e
000003c0: c2bf 9dbc 6369 2ebe 8762 e73e 036c 35be
000003d0: 17e7 da3e a603 7fbb d108 91be 4d2b f0be
000003e0: dfa9 e23e 40e4 e1be c3ea 64be 79e0 52be
000003f0: 8ff7 e4be 27df a13e 65eb f4bc e9de 303f
0.10958865 0.5561952 -0.17043781 0.00394616 0.23082219 -0.13709924 0.38969615 0.6752269
0.3127906 0.02834484 -0.19198333 0.09206432 -0.02576768 -0.13467006 -0.45007282 0.6403681
0.0039578006 -0.15179688 0.110392 0.04456625 0.04371873 0.25390136 0.07885126 -0.7551041
-0.31427094 -0.1498076 0.48951492 0.16968581 0.26904273 -0.2453429 0.110145785 0.26298088
-0.02009935 0.47125202 0.62530804 -0.23168248 0.018041926 -0.30891088 0.14296651 -1.2029412
-0.38567758 -0.2650961 -0.46124578 -0.12725745 -0.14036709 0.49049526 0.03876935 0.080780126
0.25981864 0.28288153 -0.090551026 0.6258031 0.36685392 -0.61510783 0.06928664 -0.2375657
0.09774705 -0.319645 0.52793115 0.39843976 -0.19293177 0.5557126 0.48794895 -0.17782916
0.22953203 0.124097176 -0.017409973 -0.1669874 -0.0336891 0.5590757 -0.019528003 -0.24814782
-0.031280514 0.09152537 0.3001098 -0.3051905 0.5912605 -0.17017855 -0.14327832 -0.06354254
-0.32977623 -0.76864105 -0.1152668 -0.3511552 -0.03952249 -0.44932222 0.11405266 -0.79643077
0.31623423 0.37838396 -0.119958274 -0.015897295 -0.064843185 -0.07679549 0.12252619 -0.28137693
0.39374208 0.09219509 -0.28106153 -0.22161242 0.9949302 -0.011872194 0.07511348 -0.6381448
-0.32489243 -0.10955699 -0.023371048 -0.06672353 0.36166367 0.6949782 0.0029098499 0.37671897
-0.06933536 -0.6640683 0.08952725 -0.073298246 0.099247195 0.24799694 -0.11369807 0.040430535
-0.52139145 -0.11107605 -0.15382656 -0.31980264 0.06060911 -0.16703953 0.23312157 0.44023925
0.08022995 0.35412678 0.05029839 -0.09078382 0.33813927 0.06758302 -0.114716955 0.23695588
0.15117767 0.157032 -0.73101974 0.23315759 0.74279404 -0.060510762 -0.13175689 0.30943966
0.266909 -0.14752384 -0.21461706 0.30970025 -0.5121099 -0.009922597 -0.16677485 0.662865
0.12684096 0.20533156 0.27237684 0.4217772 0.049058292 0.18745881 0.16831097 0.17947508
0.32517278 0.116181165 -1.5728421 -0.18728286 -0.72045565 0.06587568 0.2712601 0.5857116
0.23082618 -0.16585605 -0.36043978 0.13140666 0.105331354 0.074533865 0.2759569 0.470642
0.08214783 0.18472186 1.8348262 0.74575156 -0.09331965 0.42472675 -0.11086516 0.034643147
0.031896953 -0.09172829 -0.1267466 0.6930516 -0.3232848 0.2438989 -0.3428237 0.83065796
-0.1795069 -0.18088548 -0.081635535 0.102491334 -0.18940772 0.047688816 0.6527036 -0.037030768
0.2690513 -7.648725e-05 0.078810744 0.039966937 -0.044715375 0.25190264 -0.1688697 0.04074101
0.52161163 -0.14481513 0.09936568 0.073627256 0.18020193 0.055321075 0.13774143 0.23911501
-0.0032933312 0.5841992 -0.03245068 -0.02336945 1.3402023 -0.0910397 0.027194154 0.43822512
0.09597735 0.2975081 -0.2175261 0.27614787 0.2454058 -0.3485273 0.40541008 -0.03990499
0.030509721 0.1735845 -0.61585087 0.45524773 -0.0025233168 0.31173447 -0.17171837 0.28834188
-0.019256476 -0.1703239 0.45192358 -0.17716984 0.42754433 -0.0038912087 -0.2832704 -0.46908036
0.44270226 -0.44119453 -0.2235518 -0.20593442 -0.44720122 0.31615564 -0.029897401 0.69090134

fc4.bias f4 [400]
00000000: d0e1 a3bf 53ae da3e 3a15 f5bf 653d a1bf
00000010: e0a8 01c0 9f48 0ec0 3219 85bf 0253 9dbf
00000020: 9b60 08c0 221b b4bf 9155 023f 1b4b 42c0
00000030: d606 dcbf 913a 21be 571a 9fbf 043f 90bf
00000040: 9308 14c0 910c 1fbf 2f48 27bf 8915 86bf
00000050: 838f 89bf ea89 19c0 ec9c f3bf eb46 5dbf
00000060: 7166 dbbe 738b ecbf 7b16 e53c 23a7 f6bf
00000070: 3ac2 3abf 2a72 abbf af73 25c0 4ce6 8b3e
00000080: 2424 23c0 56f0 aabf 17fa 44bf 2984 86bf
00000090: 32a6 44c0 6594 cdbf acc4 95bf 3b23 99bf
000000a0: f6c9 8abf 052b 90bf 7859 5cbf 5562 b3bf
000000b0: 149a ffbe 6d01 01c0 bdaf 08c0 b169 8ebe
000000c0: 45fc 03c0 d4a6 e3bf faa1 933f dce9 fabf
000000d0: 712e a2bf c052 3fbf 6c60 91bf 10d3 6fbf
000000e0: 0821 80bf aae4 e2be cb39 bfbf 48db 713e
000000f0: d475 b8bf 42ae 82bf c8da d5bf 3012 36bf
00000100: d38f 5bbe fd7e 463e a55a e7bf e7ec b9bf
00000110: ba5f 38bf 2645 dcbf 9feb d5bf f720 05bf
00000120: 4762 febf 68f9 e6be e9b2 ccbf 6237 b6bf
00000130: 1fa4 d23e 2191 b9c0 f0e9 f1bf aa87 d0bf
00000140: 06a9 bdbf 0418 3fc0 9747 c1bf 66ac 6abf
00000150: 716f 3b3f 1a92 823e 7635 01bf 5bcb 0dbf
00000160: 80c0 00c0 9e70 d7bf 3207 c5bf 61ed c0bf
00000170: 921e acbf e7f5 40bf ef42 aabd 34aa c9bf
00000180: 82b5 ebc0 3306 53be 06d0 ecbf e1d6 b8bf
00000190: af05 a9bf d4b6 18c0 8b67 05c0 889b 7cbf
000001a0: 9eb4 02c0 31f6 2fbf 2675 f4b9 619b a6bf
000001b0: b7e0 18c0 8515 1cbf 8f4e 10be ed6f 85bf
000001c0: 2e9f 9abf 6862 ebbd 0fee 50bf 5a58 17bf
000001d0: d339 e6bf d452 b9bf 39fb b2be 2a14 2cbf
000001e0: 6049 11c0 3724 febf 5229 c5be eac5 49bf
000001f0: 4cc7 91be 7fd3 e4bf 4877 e7bf acb3 323f
00000200: 8e60 c7be ecc1 79bf 1a08 a4bf bdcd 1f3f
00000210: 299c 90bf 3127 cdbf 236c bcbe cf55 e2be
00000220: 449e dabf 9227 cdbf aeeb 0ec0 c397 c3bf
00000230: 8f14 0ebf 71c9 b9bf c2af 65bf d67f bcbf
00000240: 8b80 54bf 9536 f0bf 165d 16c0 f733 b9bd
00000250: 036f fbbf 6e78 7cbf 5613 90bf 268f 82c0
00000260: c878 0cc0 be19 efbf 8aa9 fbbd ddcc 603e
00000270: 904b 61bf 07e2 d3bf 76ec 30bf 540b f7bf
00000280: 5703 ecbe 8583 efbf 1ecd f8bf b6d0 b9bf
00000290: 0b7c cfbf 1369 4ebf 848f fdbf 9816 e1be
000002a0: 5a40 4fc0 3c84 01c0 270f e0bf ae60 ed3d
000002b0: 99a7 86be 9e33 11c0 96be 9abf 73f1 c5bf
000002c0: a859 c3bf bfb5 d8bf ea63 56bf a9f5 b5bf
000002d0: eec7 c9bf 69ae 0ac0 aa0e a5bf bfb9 27bf
000002e0: e19e dcbf 1eaf 0ec0 0fd8 99be 8f1e 12c0
000002f0: 16fe 9cbf 7990 64bf cb32 ffbe cba2 00bf
00000300: 8ef8 3fbf 2032 fbbf 4830 8e3e 5a56 82bf
00000310: 8221 fcbf 4034 a4bf dc8d c8be faa4 24c0
00000320: 4b9b d0bf 2963 22c0 4d1e 3cbd d540 9f3e
00000330: 2934 c8bf 64fe 0dc0 0e73 11c0 2768 07c0
00000340: 4b98 9d3d 6363 05c0 832e 1bbf 4e29 cbbf
00000350: 1c00 9bbf 5adc 4cc0 0f4c efbf c7dc b6bf
00000360: 475b a2bf a5bd 04c0 6463 bebf 1425 d9bf
00000370: bb68 5abf 5411 9d3e e88c 0dc0 6a3b 19c0
00000380: fa35 15c0 a893 07c0 6ace b9bf bf39 da3d
00000390: d773 c9bf 9836 cebf 72e1 bcbe 4316 dcbf
000003a0: c522 28bf 1b23 893e bef5 d5bf 7a7f 14c0
000003b0: 9343 8d3e 8efa eabf 06db bfbf 8150 58c0
000003c0: 41fd aabf 92a2 08c0 0ba8 09c0 479d cebf
000003d0: ae2d d6bf d8b7 cabe 858c 06c0 9a0b c1bf
000003e0: efe0 dabe 6bf5 60bf 1d59 13c0 5e0a aabf
000003f0: aff5 d1bf 096e 13c0 43e4 f1bf 62e6 75be
-1.2803288 0.42711124 -1.9147103 -1.2596861 -2.0259323 -2.2231824 -1.0398314 -1.2290957
-2.1308963 -1.407078 0.50911814 -3.035834 -1.7189586 -0.15744998 -1.2429913 -1.1269231
-2.3130233 -0.6212855 -0.6534452 -1.0475322 -1.0746921 -2.3990426 -1.9032264 -0.8643634
-0.42851594 -1.8480057 0.027964821 -1.9269756 -0.72952616 -1.3394215 -2.5851858 0.2732414
-2.5490808 -1.3354595 -0.76944107 -1.0509082 -3.0726438 -1.6060911 -1.1700644 -1.1963876
-1.0842884 -1.1263129 -0.8607402 -1.4014384 -0.4992224 -2.015712 -2.1357262 -0.2781501
-2.0622723 -1.7785287 1.1533806 -1.9602618 -1.2670423 -0.7473564 -1.1357551 -0.9368143
-1.001008 -0.44315082 -1.4939512 0.23618805 -1.4410958 -1.0209429 -1.6707392 -0.711215
-0.21441583 0.1938438 -1.8074538 -1.4525422 -0.7202107 -1.7208602 -1.6712531 -0.52003425
-1.9873742 -0.45112157 -1.5992099 -1.4235651 0.4114084 -5.798966 -1.8899517 -1.6291401
-1.4817207 -2.9858408 -1.5099972 -0.9166931 0.7321692 0.25502092 -0.504722 -0.5538842
-2.0117493 -1.6831243 -1.5392821 -1.5072442 -1.3446829 -0.7537522 -0.08313548 -1.5755067
-7.3659067 -0.20607834 -1.8500984 -1.4440576 -1.320486 -2.386159 -2.0844448 -0.9867482
-2.042274 -0.68735033 -0.0004662659 -1.3016168 -2.3887155 -0.60970336 -0.14092468 -1.0424782
-1.2079828 -0.11493379 -0.8161325 -0.5911919 -1.7986397 -1.4478402 -0.34957293 -0.6721827
-2.2701035 -1.9854802 -0.38508087 -0.7881762 -0.28472364 -1.7877043 -1.8083277 0.6980541
-0.38940853 -0.97561526 -1.2814972 0.62423307 -1.1297656 -1.6027585 -0.36801252 -0.44206092
-1.7079549 -1.6027701 -2.2331347 -1.5280689 -0.5550012 -1.45146 -0.8972131 -1.4726512
-0.8300864 -1.8766657 -2.3494315 -0.09043115 -1.9643253 -0.9862126 -1.1255901 -4.079974
-2.194872 -1.8679731 -0.122881964 0.21953149 -0.88005924 -1.6553353 -0.6911081 -1.9300332
-0.46096298 -1.8712012 -1.9437597 -1.4516819 -1.620973 -0.8062908 -1.9809422 -0.4396255
-3.2383027 -2.023696 -1.7504624 0.11590706 -0.26299742 -2.2687755 -1.2089412 -1.546431
-1.5261736 -1.6930465 -0.83746207 -1.4215595 -1.5764139 -2.1668952 -1.28951 -0.655178
-1.7235986 -2.2294383 -0.30047652 -2.2831151 -1.2265041 -0.8928295 -0.4984344 -0.502484
-0.7498864 -1.9624672 0.2777121 -1.0182602 -1.9697726 -1.2828445 -0.3917073 -2.5725694
-1.6297392 -2.5373023 -0.045927335 0.3110415 -1.5640918 -2.2186518 -2.2726474 -2.115732
0.07695063 -2.084191 -0.60617846 -1.587198 -1.2109408 -3.2009492 -1.8695086 -1.4286126
-1.2684106 -2.074075 -1.4874082 -1.696444 -0.85316056 0.30677283 -2.2117252 -2.3942513
-2.3314195 -2.1183872 -1.4516118 0.106555454 -1.5738477 -1.6110411 -0.3689075 -1.7194294
-0.65678054 0.26784596 -1.671562 -2.3202806 0.27590618 -1.8357713 -1.4988716 -3.3799136
-1.3358537 -2.1349225 -2.1508815 -1.6141747 -1.673269 -0.39593387 -2.1023266 -1.5081666
-0.42749736 -0.8787448 -2.302314 -1.3284414 -1.6403102 -2.303591 -1.8897785 -0.24013665

fc5.weight f4 [120, 400]
00000000: 02fd 703d 1154 58bf 8f4a 523e 634e 0cbf
00000010: f6df 103e 4c8f a7bd 1716 f9be dcbe 863f
00000020: 5f83 553e 7e50 85be 277a c33e 870c 07bf
00000030: 9289 f8be 9276 b4be d116 65be 29e8 bbbe
00000040: a98f 26be 6751 043e dff7 87bd 3c7a c73e
00000050: 95f5 043f ff46 db3e a6af 89be da91 de3d
00000060: df3a 36bf 3811 c23d de9b 0abe fc83 c53d
00000070: 84ad 06bf 966a 63be a347 a4bd a69b b3be
00000080: 3da7 263f 6886 093e 80cf 153d 8252 a9bd
00000090: f7ac 5dbf adcc 3ebe ecee 013f ff3e 16bf
000000a0: e34a f7bc 1661 833e b1b2 45be 2d80 20be
000000b0: 80da 47be e391 5a3d 00a6 a3bd 03e5 f63d
000000c0: 04f5 5d3d 912d e63c 9bdb ed3d 438e 2dbe
000000d0: f1eb 91be 2105 2cbe 9ac0 b6be 7118 903b
000000e0: d289 5c3d 2f79 6d3e f232 5fbe 8522 da3e
000000f0: 3245 3dbe 6418 813e 166e bcbe cb07 99be
00000100: 8f7f d5be 7f06 ad3c 64a7 8fbe ecc4 133e
00000110: 550f 133f f469 103f 2419 82be c6f9 c0be
00000120: d502 953e a0d0 47be f767 743e 398b 5e3e
00000130: 5e3c b43e 481e 09c0 0774 a53e 4dba 023f
00000140: 7541 b6be 88ad 4abe dcd8 04bf a98a a1bd
00000150: 3e8a f13c a732 dd3d 2ec6 8b3e a2df 0a3d
00000160: c485 813c 212e 753d 88a2 223f e49a 03bf
00000170: 277b eebe f765 1cbd e918 e43c 2943 933e
00000180: 035a 94c0 a24a 943d fab8 f5bd d4ee 6a3f
00000190: afae 24be 80e2 63bf a806 0ebd 4184 f33e
000001a0: 1a12 8f3d 6422 9a3d 1c96 e23d 6322 5bbe
000001b0: 9ecd 8b3e c272 923b d1b4 763e e98c 49bf
000001c0: 7724 433e 3e9c 3a3d d049 aa3e aef4 fa3d
000001d0: 3380 49be 9cbd 363e 0f68 ddbe 6865 5dbe
000001e0: 0383 03bf 5c8d a7bc 82fc 823e 4b25 543e
000001f0: fa8d a23c c022 7d3f 556c 88be 85c8 ad3d
00000200: 035a 9b3e 37c7 d9be 5d0a a2be 3bcd 5b3d
00000210: 6681 0a3f 79fd 953e 5cd2 c93e e165 66bb
00000220: 97ee c73d 5af2 b03c 497a dbbe 493a 413e
00000230: bfbc 0e3e e846 71bd 81ec 793c ea0b 083c
00000240: 1c5d c13c fd8b 9cbe 90ce 273f d674 3e3f
00000250: 690b 16bf d855 acbe 5feb 853d 769a 04bf
00000260: 229d 20be 78eb d33e 1a4a 013e dddf dabe
00000270: 337d 163e c2ce 0ebe a093 503c 98b2 e63e
00000280: cc5e aebd f1a9 c13e 6be8 fa3c c047 f4be
00000290: ae32 ddbe bf3d be3e fa59 e63e dd8d b8be
000002a0: c86a 4ec0 a9ed 6b3e 0c85 f4bd 44d1 eb3b
000002b0: 8391 c2be 8cae a53e b1a8 e73e e891 e4bd
000002c0: 750e 70be 626b c63e 29d0 14be 3df3 6dbd
000002d0: 8104 c83d d713 373f 7e2e f8bd 469a 38be
000002e0: c5c0 a93e 2c83 b0bd fa14 403e c99f c7be
000002f0: 4874 7f3f c835 d93d a51a 99be 2bb1 07bf
00000300: 90f8 353e a391 18bf b75b 193f ccf8 9abe
00000310: 8d5f c53e 921d 0ebf 1bf2 513f 54d5 423e
00000320: 9a60 5b3e 9523 103e be59 703e 7459 183f
00000330: 0d70 963e a487 77be bae9 f9be bba7 b53c
00000340: fc7f 0cbb 1f16 aabe 680b a7be e98e e4be
00000350: bca1 cfbe 94ab 6ebf 7f18 9b3e 197b 06bf
00000360: 8828 f33e ef19 56be e2c1 613e 72e7 84bb
00000370: 2938 01bf 3e68 abbd 2994 933e acab f1be
00000380: f634 6fbd 2af9 a13e 4a85 37bd 3f61 13bf
00000390: 9c46 5cbd 11e0 ed3c 5395 20be d71b 903e
000003a0: a46e c43d e775 8ebe cebd 643d 6a76 0d3f
000003b0: 5637 e0be 2d84 97bd 5d43 323e 6415 273f
000003c0: c73e ec3d 6c9c 9fbe e6cb 0a3d b3fe f1be
000003d0: 09da c33e f7ce 923e 2362 52be 5291 dabd
000003e0: 4e88 debe de2d 9abe 9795 303e 1e1c b6bd
000003f0: f622 1b3e 6321 39bd 6d21 90be ec6a e13d
0.058835037 -0.84503275 0.20536254 -0.5480711 0.14147934 -0.081816286 -0.48649666 1.0526996
0.20850895 -0.26037973 0.38179132 -0.5275349 -0.48542458 -0.35246712 -0.22371985 -0.36700562
-0.1626574 0.12921678 -0.066390745 0.38960445 0.5193723 0.42827603 -0.26891822 0.10867663
-0.7118358 0.094759405 -0.13536021 0.09644315 -0.52608514 -0.22208628 -0.08021476 -0.35079688
0.65098935 0.13430178 0.03657484 -0.0826769 -0.8659205 -0.18632765 0.5075519 -0.58689874
-0.030187076 0.25660008 -0.19306447 -0.15673895 -0.19516945 0.053361785 -0.07990646 0.12055399
0.054188743 0.0280979 0.11614152 -0.169488 -0.28500322 -0.16798832 -0.35693818 0.004397445
0.053842373 0.23190759 -0.21796778 0.4260446 -0.18483427 0.2521392 -0.3680274 -0.29888758
-0.41698882 0.021121262 -0.28057396 0.14430588 0.5744527 0.5641167 -0.25409806 -0.37690562
0.29103723 -0.19513178 0.23867784 0.21732797 0.35202307 -2.1424732 0.32315084 0.5106552
-0.35596815 -0.1979276 -0.518934 -0.078877755 0.029484864 0.10800677 0.27299637 0.03390468
0.015810855 0.059858445 0.63529253 -0.5140822 -0.46578333 -0.03818318 0.02784391 0.28762177
-4.6359878 0.072407976 -0.11998172 0.9177067 -0.16082262 -0.89017487 -0.034674317 0.4756184
0.069858745 0.07526091 0.11063787 -0.21399836 0.2730531 0.0044692466 0.24092413 -0.78730637
0.19056879 0.04555916 0.3325944 0.122537 -0.1967781 0.17845768 -0.43243453 -0.21620715
-0.51371783 -0.020453148 0.25583273 0.20717351 0.01984309 0.9888115 -0.2664515 0.08485512
0.3034211 -0.425348 -0.31648532 0.05366252 0.54103696 0.29294947 0.39418304 -0.003515594
0.09762304 0.021599937 -0.42866734 0.1886989 0.13939188 -0.058905512 0.015254141 0.008303622
0.023603968 -0.30575553 0.65549564 0.7439703 -0.5861116 -0.33659244 0.06539034 -0.5179819
-0.15684941 0.41390586 0.12625924 -0.4274892 0.14696197 -0.1394606 0.012730509 0.4505813
-0.08514175 0.37824968 0.030628404 -0.4771099 -0.43202728 0.37156484 0.44990522 -0.36045733
-3.2252674 0.23039879 -0.11939439 0.0071965773 -0.38001642 0.3235973 0.4524589 -0.11160642
-0.23443015 0.38753802 -0.14532532 -0.0580933 0.09766484 0.7151465 -0.12118243 -0.180276
0.33154884 -0.08618769 0.18758002 -0.38989094 0.99786806 0.10605961 -0.2990314 -0.5300471
0.177706 -0.59597224 0.5990557 -0.30267942 0.38549462 -0.5551387 0.8201005 0.1902669
0.2142357 0.14076073 0.23471734 0.59511495 0.29382363 -0.24172837 -0.48811132 0.022174707
-0.002143859 -0.33220002 -0.3262589 -0.44640282 -0.4055308 -0.9323056 0.30292127 -0.5253158
0.4749186 -0.2090833 0.22046617 -0.0040559107 -0.5047632 -0.08369492 0.28823975 -0.47201288
-0.058400117 0.3163541 -0.04480485 -0.5757026 -0.053778276 0.029037507 -0.15681963 0.2814624
0.095914155 -0.27824327 0.055845074 0.5525881 -0.43792218 -0.073982574 0.1740851 0.65267015
0.11535411 -0.31174028 0.03388586 -0.47264633 0.38252285 0.28673527 -0.20545249 -0.10672249
-0.43463367 -0.3011312 0.17244564 -0.08892082 0.15150055 -0.045197856 -0.28150502 0.11006722

fc5.bias f4 [120]
00000000: feb5 f8be d37a 4dbf 5913 3abf 1dad 9abf
00000010: ecb2 60bf a748 e63e dcce fabe 6250 f4bf
00000020: c1e7 24bf 39c6 90be 4283 aebe 94ec adbf
00000030: 2773 4ebf 50d5 3cbe 7ade aabe facd bcbf
00000040: f5ec c8bf f130 a6be f007 f83d 0abb 93bf
00000050: 782f 76bf 8c2d 92be 5018 083c 8490 c9bf
00000060: 7aa0 20bf 0213 62bf 4ac5 15be 5d8d 9fbf
00000070: 553c c0bf 77c3 a03f 13c4 c7bf 7419 6cbf
00000080: 6c37 94be 92a3 9abf 8aac 15bf ca9b 99bf
00000090: 65cb 7cbf a74d 4ebf ba18 bf3e 43fc b5bf
000000a0: ad4b b8bf 8f5c 24be c9f6 a33c 8c25 8ebf
000000b0: b94d 74bf 1dde 7a3e 084a 4ebe 6408 f3bf
000000c0: 78ec 12bf e29b 15bf 0d86 bb3e 314e 03c0
000000d0: 8f19 86bf ba70 54bf 044e b43e 51ca a8bf
000000e0: cd5e 80bf 4ba6 68bd ab62 86bf 3be0 6f3d
000000f0: 702a 5cbf ce55 75bd 8fd5 e8bf 7bc6 943e
00000100: 526c 37bf 26f4 49bf 06e8 d3bd 73f2 82bf
00000110: a734 81bf a3e1 10bf 5c6f 6fbf 4f52 e53d
00000120: 7c74 cdbf b00a 65bf a155 bcbe e7dd 13bf
00000130: 0545 8dbf 03a1 1abf 6bd2 67bf 45fc 35bd
00000140: 73f6 0c3e 545a 39bf bb55 bdbe baf3 76bf
00000150: 8642 4bbe 267e 39bf 465b 063d 23a5 8ebf
00000160: 763c 2dbf 42b7 cbbe 945e a6bf 7eed d9bd
00000170: 002a acbf 284a 27bf 420b 91bf 8f04 d63e
00000180: 6912 94bf a0ca 11bf 991c ad3e 13f5 a0bf
00000190: 8a4e 22c0 df60 d73e 44d2 383f eaa6 d0bf
000001a0: 66f4 6dbf cdda f53e 8343 febf fcb3 8bbe
000001b0: 5891 83bf da11 01c0 e1ce 4fbe a1e9 96bd
000001c0: fc72 70bf 1869 54bf ef76 84bf 9fe5 89be
000001d0: 2d0b 37bf 8b45 8cbf 8ac8 f3be 5265 943e
-0.4857635 -0.8026554 -0.7268577 -1.208408 -0.87773013 0.44977304 -0.48985946 -1.9087031
-0.6441613 -0.28276232 -0.34084517 -1.3587823 -0.8064446 -0.18440747 -0.3337286 -1.4750359
-1.5697314 -0.32459214 0.12110889 -1.1541455 -0.9616618 -0.28550375 0.008306578 -1.5747228
-0.6274487 -0.88310254 -0.14626041 -1.2465016 -1.5018412 1.2559651 -1.5606712 -0.9222634
-0.28948534 -1.2081168 -0.584664 -1.2000668 -0.98747855 -0.8058724 0.37323552 -1.4217609
-1.4398094 -0.16050933 0.020015137 -1.1105208 -0.95431095 0.24498792 -0.20145428 -1.8986936
-0.5739207 -0.58440983 0.3662571 -2.0516474 -1.047655 -0.8298451 0.3521577 -1.3186742
-1.0028931 -0.056799214 -1.0498861 0.058563452 -0.86002254 -0.059896283 -1.8190173 0.2905768
-0.7164966 -0.78888166 -0.10346989 -1.023024 -1.0094193 -0.56594294 -0.93529296 0.1119734
-1.6051173 -0.8946943 -0.3678408 -0.5776047 -1.1036688 -0.60401934 -0.9055545 -0.044430036
0.13765888 -0.72403455 -0.3697947 -0.9646565 -0.19849595 -0.7245811 0.03280189 -1.1144146
-0.6767038 -0.39788252 -1.2997613 -0.10641001 -1.3450317 -0.6534753 -1.1331561 0.41800353
-1.1568118 -0.56949806 0.3381088 -1.2574791 -2.5360436 0.42066094 0.7219584 -1.6300938
-0.9295105 0.48018494 -1.9864353 -0.27285755 -1.027873 -2.0167146 -0.20293762 -0.0736878
-0.9392545 -0.8297286 -1.0348796 -0.26933 -0.7150143 -1.0958723 -0.47613937 0.2898355
